…
I1027 18:24:39.850152  5972 solver.cpp:86] Creating training net from train_net file: models/VGG16/faster_rcnn_alt_opt/stage2_fast_rcnn_ohem_train.pt
I1027 18:24:39.851002  5972 net.cpp:50] Initializing net from parameters: 
name: "VGG_ILSVRC_16_layers"
state {
  phase: TRAIN
}
layer {
  name: "data"
  type: "Python"
  top: "data"
  top: "rois"
  top: "labels"
  top: "bbox_targets"
  top: "bbox_inside_weights"
  top: "bbox_outside_weights"
  python_param {
    module: "roi_data_layer.layer"
    layer: "RoIDataLayer"
    param_str: "\'num_classes\': 8"
  }
}
layer {
  name: "conv1_1"
  type: "Convolution"
  bottom: "data"
  top: "conv1_1"
  param {
    lr_mult: 0
    decay_mult: 0
  }
  param {
    lr_mult: 0
    decay_mult: 0
  }
  convolution_param {
    num_output: 64
    pad: 1
    kernel_size: 3
  }
}
layer {
  name: "relu1_1"
  type: "ReLU"
  bottom: "conv1_1"
  top: "conv1_1"
}
layer {
  name: "conv1_2"
  type: "Convolution"
  bottom: "conv1_1"
  top: "conv1_2"
  param {
    lr_mult: 0
    decay_mult: 0
  }
  param {
    lr_mult: 0
    decay_mult: 0
  }
  convolution_param {
    num_output: 64
    pad: 1
    kernel_size: 3
  }
}
layer {
  name: "relu1_2"
  type: "ReLU"
  bottom: "conv1_2"
  top: "conv1_2"
}
layer {
  name: "pool1"
  type: "Pooling"
  bottom: "conv1_2"
  top: "pool1"
  pooling_param {
    pool: MAX
    kernel_size: 2
    stride: 2
  }
}
layer {
  name: "conv2_1"
  type: "Convolution"
  bottom: "pool1"
  top: "conv2_1"
  param {
    lr_mult: 0
    decay_mult: 0
  }
  param {
    lr_mult: 0
    decay_mult: 0
  }
  convolution_param {
    num_output: 128
    pad: 1
    kernel_size: 3
  }
}
layer {
  name: "relu2_1"
  type: "ReLU"
  bottom: "conv2_1"
  top: "conv2_1"
}
layer {
  name: "conv2_2"
  type: "Convolution"
  bottom: "conv2_1"
  top: "conv2_2"
  param {
    lr_mult: 0
    decay_mult: 0
  }
  param {
    lr_mult: 0
    decay_mult: 0
  }
  convolution_param {
    num_output: 128
    pad: 1
    kernel_size: 3
  }
}
layer {
  name: "relu2_2"
  type: "ReLU"
  bottom: "conv2_2"
  top: "conv2_2"
}
layer {
  name: "pool2"
  type: "Pooling"
  bottom: "conv2_2"
  top: "pool2"
  pooling_param {
    pool: MAX
    kernel_size: 2
    stride: 2
  }
}
layer {
  name: "conv3_1"
  type: "Convolution"
  bottom: "pool2"
  top: "conv3_1"
  param {
    lr_mult: 0
    decay_mult: 0
  }
  param {
    lr_mult: 0
    decay_mult: 0
  }
  convolution_param {
    num_output: 256
    pad: 1
    kernel_size: 3
  }
}
layer {
  name: "relu3_1"
  type: "ReLU"
  bottom: "conv3_1"
  top: "conv3_1"
}
layer {
  name: "conv3_2"
  type: "Convolution"
  bottom: "conv3_1"
  top: "conv3_2"
  param {
    lr_mult: 0
    decay_mult: 0
  }
  param {
    lr_mult: 0
    decay_mult: 0
  }
  convolution_param {
    num_output: 256
    pad: 1
    kernel_size: 3
  }
}
layer {
  name: "relu3_2"
  type: "ReLU"
  bottom: "conv3_2"
  top: "conv3_2"
}
layer {
  name: "conv3_3"
  type: "Convolution"
  bottom: "conv3_2"
  top: "conv3_3"
  param {
    lr_mult: 0
    decay_mult: 0
  }
  param {
    lr_mult: 0
    decay_mult: 0
  }
  convolution_param {
    num_output: 256
    pad: 1
    kernel_size: 3
  }
}
layer {
  name: "relu3_3"
  type: "ReLU"
  bottom: "conv3_3"
  top: "conv3_3"
}
layer {
  name: "pool3"
  type: "Pooling"
  bottom: "conv3_3"
  top: "pool3"
  pooling_param {
    pool: MAX
    kernel_size: 2
    stride: 2
  }
}
layer {
  name: "conv4_1"
  type: "Convolution"
  bottom: "pool3"
  top: "conv4_1"
  param {
    lr_mult: 0
    decay_mult: 0
  }
  param {
    lr_mult: 0
    decay_mult: 0
  }
  convolution_param {
    num_output: 512
    pad: 1
    kernel_size: 3
  }
}
layer {
  name: "relu4_1"
  type: "ReLU"
  bottom: "conv4_1"
  top: "conv4_1"
}
layer {
  name: "conv4_2"
  type: "Convolution"
  bottom: "conv4_1"
  top: "conv4_2"
  param {
    lr_mult: 0
    decay_mult: 0
  }
  param {
    lr_mult: 0
    decay_mult: 0
  }
  convolution_param {
    num_output: 512
    pad: 1
    kernel_size: 3
  }
}
layer {
  name: "relu4_2"
  type: "ReLU"
  bottom: "conv4_2"
  top: "conv4_2"
}
layer {
  name: "conv4_3"
  type: "Convolution"
  bottom: "conv4_2"
  top: "conv4_3"
  param {
    lr_mult: 0
    decay_mult: 0
  }
  param {
    lr_mult: 0
    decay_mult: 0
  }
  convolution_param {
    num_output: 512
    pad: 1
    kernel_size: 3
  }
}
layer {
  name: "relu4_3"
  type: "ReLU"
  bottom: "conv4_3"
  top: "conv4_3"
}
layer {
  name: "pool4"
  type: "Pooling"
  bottom: "conv4_3"
  top: "pool4"
  pooling_param {
    pool: MAX
    kernel_size: 2
    stride: 2
  }
}
layer {
  name: "conv5_1"
  type: "Convolution"
  bottom: "pool4"
  top: "conv5_1"
  param {
    lr_mult: 0
    decay_mult: 0
  }
  param {
    lr_mult: 0
    decay_mult: 0
  }
  convolution_param {
    num_output: 512
    pad: 1
    kernel_size: 3
  }
}
layer {
  name: "relu5_1"
  type: "ReLU"
  bottom: "conv5_1"
  top: "conv5_1"
}
layer {
  name: "conv5_2"
  type: "Convolution"
  bottom: "conv5_1"
  top: "conv5_2"
  param {
    lr_mult: 0
    decay_mult: 0
  }
  param {
    lr_mult: 0
    decay_mult: 0
  }
  convolution_param {
    num_output: 512
    pad: 1
    kernel_size: 3
  }
}
layer {
  name: "relu5_2"
  type: "ReLU"
  bottom: "conv5_2"
  top: "conv5_2"
}
layer {
  name: "conv5_3"
  type: "Convolution"
  bottom: "conv5_2"
  top: "conv5_3"
  param {
    lr_mult: 0
    decay_mult: 0
  }
  param {
    lr_mult: 0
    decay_mult: 0
  }
  convolution_param {
    num_output: 512
    pad: 1
    kernel_size: 3
  }
}
layer {
  name: "relu5_3"
  type: "ReLU"
  bottom: "conv5_3"
  top: "conv5_3"
}
layer {
  name: "roi_pool5_readonly"
  type: "ROIPooling"
  bottom: "conv5_3"
  bottom: "rois"
  top: "pool5_readonly"
  propagate_down: false
  propagate_down: false
  roi_pooling_param {
    pooled_h: 7
    pooled_w: 7
    spatial_scale: 0.0625
  }
}
layer {
  name: "fc6_readonly"
  type: "InnerProduct"
  bottom: "pool5_readonly"
  top: "fc6_readonly"
  param {
    name: "fc6_w"
  }
  param {
    name: "fc6_b"
  }
  propagate_down: false
  inner_product_param {
    num_output: 4096
  }
}
layer {
  name: "relu6_readonly"
  type: "ReLU"
  bottom: "fc6_readonly"
  top: "fc6_readonly"
  propagate_down: false
}
layer {
  name: "drop6_readonly"
  type: "Dropout"
  bottom: "fc6_readonly"
  top: "fc6_readonly"
  propagate_down: false
  dropout_param {
    dropout_ratio: 0.5
  }
}
layer {
  name: "fc7_readonly"
  type: "InnerProduct"
  bottom: "fc6_readonly"
  top: "fc7_readonly"
  param {
    name: "fc7_w"
  }
  param {
    name: "fc7_b"
  }
  propagate_down: false
  inner_product_param {
    num_output: 4096
  }
}
layer {
  name: "relu7_readonly"
  type: "ReLU"
  bottom: "fc7_readonly"
  top: "fc7_readonly"
  propagate_down: false
}
layer {
  name: "drop7_readonly"
  type: "Dropout"
  bottom: "fc7_readonly"
  top: "fc7_readonly"
  propagate_down: false
  dropout_param {
    dropout_ratio: 0.5
  }
}
layer {
  name: "cls_score_readonly"
  type: "InnerProduct"
  bottom: "fc7_readonly"
  top: "cls_score_readonly"
  param {
    name: "cls_score_w"
  }
  param {
    name: "cls_score_b"
  }
  propagate_down: false
  inner_product_param {
    num_output: 8
    weight_filler {
      type: "gaussian"
      std: 0.01
    }
    bias_filler {
      type: "constant"
      value: 0
    }
  }
}
layer {
  name: "bbox_pred_readonly"
  type: "InnerProduct"
  bottom: "fc7_readonly"
  top: "bbox_pred_readonly"
  param {
    name: "bbox_pred_w"
  }
  param {
    name: "bbox_pred_b"
  }
  propagate_down: false
  inner_product_param {
    num_output: 32
    weight_filler {
      type: "gaussian"
      std: 0.001
    }
    bias_filler {
      type: "constant"
      value: 0
    }
  }
}
layer {
  name: "cls_prob_readonly"
  type: "Softmax"
  bottom: "cls_score_readonly"
  top: "cls_prob_readonly"
  propagate_down: false
}
layer {
  name: "hard_roi_mining"
  type: "Python"
  bottom: "cls_prob_readonly"
  bottom: "bbox_pred_readonly"
  bottom: "rois"
  bottom: "labels"
  bottom: "bbox_targets"
  bottom: "bbox_inside_weights"
  bottom: "bbox_outside_weights"
  top: "rois_hard"
  top: "labels_hard"
  top: "bbox_targets_hard"
  top: "bbox_inside_weights_hard"
  top: "bbox_outside_weights_hard"
  propagate_down: false
  propagate_down: false
  propagate_down: false
  propagate_down: false
  propagate_down: false
  propagate_down: false
  propagate_down: false
  python_param {
    module: "roi_data_layer.layer"
    layer: "OHEMDataLayer"
    param_str: "\'num_classes\': 8"
  }
}
layer {
  name: "roi_pool5"
  type: "ROIPooling"
  bottom: "conv5_3"
  bottom: "rois_hard"
  top: "pool5"
  propagate_down: true
  propagate_down: false
  roi_pooling_param {
    pooled_h: 7
    pooled_w: 7
    spatial_scale: 0.0625
  }
}
layer {
  name: "fc6"
  type: "InnerProduct"
  bottom: "pool5"
  top: "fc6"
  param {
    name: "fc6_w"
    lr_mult: 1
  }
  param {
    name: "fc6_b"
    lr_mult: 2
  }
  inner_product_param {
    num_output: 4096
  }
}
layer {
  name: "relu6"
  type: "ReLU"
  bottom: "fc6"
  top: "fc6"
}
layer {
  name: "drop6"
  type: "Dropout"
  bottom: "fc6"
  top: "fc6"
  dropout_param {
    dropout_ratio: 0.5
  }
}
layer {
  name: "fc7"
  type: "InnerProduct"
  bottom: "fc6"
  top: "fc7"
  param {
    name: "fc7_w"
    lr_mult: 1
  }
  param {
    name: "fc7_b"
    lr_mult: 2
  }
  inner_product_param {
    num_output: 4096
  }
}
layer {
  name: "relu7"
  type: "ReLU"
  bottom: "fc7"
  top: "fc7"
}
layer {
  name: "drop7"
  type: "Dropout"
  bottom: "fc7"
  top: "fc7"
  dropout_param {
    dropout_ratio: 0.5
  }
}
layer {
  name: "cls_score"
  type: "InnerProduct"
  bottom: "fc7"
  top: "cls_score"
  param {
    name: "cls_score_w"
    lr_mult: 1
  }
  param {
    name: "cls_score_b"
    lr_mult: 2
  }
  inner_product_param {
    num_output: 8
    weight_filler {
      type: "gaussian"
      std: 0.01
    }
    bias_filler {
      type: "constant"
      value: 0
    }
  }
}
layer {
  name: "bbox_pred"
  type: "InnerProduct"
  bottom: "fc7"
  top: "bbox_pred"
  param {
    name: "bbox_pred_w"
    lr_mult: 1
  }
  param {
    name: "bbox_pred_b"
    lr_mult: 2
  }
  inner_product_param {
    num_output: 32
    weight_filler {
      type: "gaussian"
      std: 0.001
    }
    bias_filler {
      type: "constant"
      value: 0
    }
  }
}
layer {
  name: "loss_cls"
  type: "SoftmaxWithLoss"
  bottom: "cls_score"
  bottom: "labels_hard"
  top: "loss_cls"
  loss_weight: 1
  propagate_down: true
  propagate_down: false
}
layer {
  name: "loss_bbox"
  type: "SmoothL1Loss"
  bottom: "bbox_pred"
  bottom: "bbox_targets_hard"
  bottom: "bbox_inside_weights_hard"
  bottom: "bbox_outside_weights_hard"
  top: "loss_bbox"
  loss_weight: 1
  propagate_down: true
  propagate_down: false
  propagate_down: false
  propagate_down: false
}
layer {
  name: "rpn_conv/3x3"
  type: "Convolution"
  bottom: "conv5_3"
  top: "rpn/output"
  param {
    lr_mult: 0
    decay_mult: 0
  }
  param {
    lr_mult: 0
    decay_mult: 0
  }
  convolution_param {
    num_output: 512
    pad: 1
    kernel_size: 3
    stride: 1
    weight_filler {
      type: "gaussian"
      std: 0.01
    }
    bias_filler {
      type: "constant"
      value: 0
    }
  }
}
layer {
  name: "rpn_relu/3x3"
  type: "ReLU"
  bottom: "rpn/output"
  top: "rpn/output"
}
layer {
  name: "rpn_cls_score"
  type: "Convolution"
  bottom: "rpn/output"
  top: "rpn_cls_score"
  param {
    lr_mult: 0
    decay_mult: 0
  }
  param {
    lr_mult: 0
    decay_mult: 0
  }
  convolution_param {
    num_output: 18
    pad: 0
    kernel_size: 1
    stride: 1
    weight_filler {
      type: "gaussian"
      std: 0.01
    }
    bias_filler {
      type: "constant"
      value: 0
    }
  }
}
layer {
  name: "rpn_bbox_pred"
  type: "Convolution"
  bottom: "rpn/output"
  top: "rpn_bbox_pred"
  param {
    lr_mult: 0
    decay_mult: 0
  }
  param {
    lr_mult: 0
    decay_mult: 0
  }
  convolution_param {
    num_output: 36
    pad: 0
    kernel_size: 1
    stride: 1
    weight_filler {
      type: "gaussian"
      std: 0.01
    }
    bias_filler {
      type: "constant"
      value: 0
    }
  }
}
layer {
  name: "silence_rpn_cls_score"
  type: "Silence"
  bottom: "rpn_cls_score"
}
layer {
  name: "silence_rpn_bbox_pred"
  type: "Silence"
  bottom: "rpn_bbox_pred"
}
I1027 18:24:39.851194  5972 layer_factory.hpp:76] Creating layer data
I1027 18:24:39.851950  5972 net.cpp:110] Creating Layer data
I1027 18:24:39.851958  5972 net.cpp:433] data -> data
I1027 18:24:39.851965  5972 net.cpp:433] data -> rois
I1027 18:24:39.851969  5972 net.cpp:433] data -> labels
I1027 18:24:39.851974  5972 net.cpp:433] data -> bbox_targets
I1027 18:24:39.851977  5972 net.cpp:433] data -> bbox_inside_weights
I1027 18:24:39.851981  5972 net.cpp:433] data -> bbox_outside_weights
RoiDataLayer: name_to_top: {'bbox_inside_weights': 4, 'labels': 2, 'rois': 1, 'bbox_targets': 3, 'bbox_outside_weights': 5, 'data': 0}
I1027 18:24:39.852366  5972 net.cpp:155] Setting up data
I1027 18:24:39.852375  5972 net.cpp:163] Top shape: 1 3 370 1250 (1387500)
I1027 18:24:39.852376  5972 net.cpp:163] Top shape: 1 5 (5)
I1027 18:24:39.852380  5972 net.cpp:163] Top shape: 1 (1)
I1027 18:24:39.852381  5972 net.cpp:163] Top shape: 1 32 (32)
I1027 18:24:39.852383  5972 net.cpp:163] Top shape: 1 32 (32)
I1027 18:24:39.852385  5972 net.cpp:163] Top shape: 1 32 (32)
I1027 18:24:39.852388  5972 layer_factory.hpp:76] Creating layer rois_data_1_split
I1027 18:24:39.852396  5972 net.cpp:110] Creating Layer rois_data_1_split
I1027 18:24:39.852397  5972 net.cpp:477] rois_data_1_split <- rois
I1027 18:24:39.852401  5972 net.cpp:433] rois_data_1_split -> rois_data_1_split_0
I1027 18:24:39.852406  5972 net.cpp:433] rois_data_1_split -> rois_data_1_split_1
I1027 18:24:39.852413  5972 net.cpp:155] Setting up rois_data_1_split
I1027 18:24:39.852416  5972 net.cpp:163] Top shape: 1 5 (5)
I1027 18:24:39.852418  5972 net.cpp:163] Top shape: 1 5 (5)
I1027 18:24:39.852421  5972 layer_factory.hpp:76] Creating layer conv1_1
I1027 18:24:39.852426  5972 net.cpp:110] Creating Layer conv1_1
I1027 18:24:39.852427  5972 net.cpp:477] conv1_1 <- data
I1027 18:24:39.852430  5972 net.cpp:433] conv1_1 -> conv1_1
I1027 18:24:39.857055  5972 net.cpp:155] Setting up conv1_1
I1027 18:24:39.857074  5972 net.cpp:163] Top shape: 1 64 370 1250 (29600000)
I1027 18:24:39.857084  5972 layer_factory.hpp:76] Creating layer relu1_1
I1027 18:24:39.857091  5972 net.cpp:110] Creating Layer relu1_1
I1027 18:24:39.857095  5972 net.cpp:477] relu1_1 <- conv1_1
I1027 18:24:39.857108  5972 net.cpp:419] relu1_1 -> conv1_1 (in-place)
I1027 18:24:39.857120  5972 net.cpp:155] Setting up relu1_1
I1027 18:24:39.857122  5972 net.cpp:163] Top shape: 1 64 370 1250 (29600000)
I1027 18:24:39.857125  5972 layer_factory.hpp:76] Creating layer conv1_2
I1027 18:24:39.857130  5972 net.cpp:110] Creating Layer conv1_2
I1027 18:24:39.857131  5972 net.cpp:477] conv1_2 <- conv1_1
I1027 18:24:39.857136  5972 net.cpp:433] conv1_2 -> conv1_2
I1027 18:24:39.857933  5972 net.cpp:155] Setting up conv1_2
I1027 18:24:39.857944  5972 net.cpp:163] Top shape: 1 64 370 1250 (29600000)
I1027 18:24:39.857951  5972 layer_factory.hpp:76] Creating layer relu1_2
I1027 18:24:39.857957  5972 net.cpp:110] Creating Layer relu1_2
I1027 18:24:39.857959  5972 net.cpp:477] relu1_2 <- conv1_2
I1027 18:24:39.857972  5972 net.cpp:419] relu1_2 -> conv1_2 (in-place)
I1027 18:24:39.857977  5972 net.cpp:155] Setting up relu1_2
I1027 18:24:39.857980  5972 net.cpp:163] Top shape: 1 64 370 1250 (29600000)
I1027 18:24:39.857982  5972 layer_factory.hpp:76] Creating layer pool1
I1027 18:24:39.857986  5972 net.cpp:110] Creating Layer pool1
I1027 18:24:39.857988  5972 net.cpp:477] pool1 <- conv1_2
I1027 18:24:39.857991  5972 net.cpp:433] pool1 -> pool1
I1027 18:24:39.857997  5972 net.cpp:155] Setting up pool1
I1027 18:24:39.858000  5972 net.cpp:163] Top shape: 1 64 185 625 (7400000)
I1027 18:24:39.858002  5972 layer_factory.hpp:76] Creating layer conv2_1
I1027 18:24:39.858006  5972 net.cpp:110] Creating Layer conv2_1
I1027 18:24:39.858008  5972 net.cpp:477] conv2_1 <- pool1
I1027 18:24:39.858011  5972 net.cpp:433] conv2_1 -> conv2_1
I1027 18:24:39.858353  5972 net.cpp:155] Setting up conv2_1
I1027 18:24:39.858361  5972 net.cpp:163] Top shape: 1 128 185 625 (14800000)
I1027 18:24:39.858367  5972 layer_factory.hpp:76] Creating layer relu2_1
I1027 18:24:39.858372  5972 net.cpp:110] Creating Layer relu2_1
I1027 18:24:39.858374  5972 net.cpp:477] relu2_1 <- conv2_1
I1027 18:24:39.858378  5972 net.cpp:419] relu2_1 -> conv2_1 (in-place)
I1027 18:24:39.858392  5972 net.cpp:155] Setting up relu2_1
I1027 18:24:39.858394  5972 net.cpp:163] Top shape: 1 128 185 625 (14800000)
I1027 18:24:39.858397  5972 layer_factory.hpp:76] Creating layer conv2_2
I1027 18:24:39.858400  5972 net.cpp:110] Creating Layer conv2_2
I1027 18:24:39.858402  5972 net.cpp:477] conv2_2 <- conv2_1
I1027 18:24:39.858405  5972 net.cpp:433] conv2_2 -> conv2_2
I1027 18:24:39.858992  5972 net.cpp:155] Setting up conv2_2
I1027 18:24:39.859001  5972 net.cpp:163] Top shape: 1 128 185 625 (14800000)
I1027 18:24:39.859006  5972 layer_factory.hpp:76] Creating layer relu2_2
I1027 18:24:39.859010  5972 net.cpp:110] Creating Layer relu2_2
I1027 18:24:39.859012  5972 net.cpp:477] relu2_2 <- conv2_2
I1027 18:24:39.859016  5972 net.cpp:419] relu2_2 -> conv2_2 (in-place)
I1027 18:24:39.859019  5972 net.cpp:155] Setting up relu2_2
I1027 18:24:39.859022  5972 net.cpp:163] Top shape: 1 128 185 625 (14800000)
I1027 18:24:39.859035  5972 layer_factory.hpp:76] Creating layer pool2
I1027 18:24:39.859037  5972 net.cpp:110] Creating Layer pool2
I1027 18:24:39.859040  5972 net.cpp:477] pool2 <- conv2_2
I1027 18:24:39.859042  5972 net.cpp:433] pool2 -> pool2
I1027 18:24:39.859047  5972 net.cpp:155] Setting up pool2
I1027 18:24:39.859050  5972 net.cpp:163] Top shape: 1 128 93 313 (3725952)
I1027 18:24:39.859052  5972 layer_factory.hpp:76] Creating layer conv3_1
I1027 18:24:39.859056  5972 net.cpp:110] Creating Layer conv3_1
I1027 18:24:39.859058  5972 net.cpp:477] conv3_1 <- pool2
I1027 18:24:39.859061  5972 net.cpp:433] conv3_1 -> conv3_1
I1027 18:24:39.859484  5972 net.cpp:155] Setting up conv3_1
I1027 18:24:39.859503  5972 net.cpp:163] Top shape: 1 256 93 313 (7451904)
I1027 18:24:39.859510  5972 layer_factory.hpp:76] Creating layer relu3_1
I1027 18:24:39.859524  5972 net.cpp:110] Creating Layer relu3_1
I1027 18:24:39.859526  5972 net.cpp:477] relu3_1 <- conv3_1
I1027 18:24:39.859529  5972 net.cpp:419] relu3_1 -> conv3_1 (in-place)
I1027 18:24:39.859544  5972 net.cpp:155] Setting up relu3_1
I1027 18:24:39.859545  5972 net.cpp:163] Top shape: 1 256 93 313 (7451904)
I1027 18:24:39.859547  5972 layer_factory.hpp:76] Creating layer conv3_2
I1027 18:24:39.859551  5972 net.cpp:110] Creating Layer conv3_2
I1027 18:24:39.859553  5972 net.cpp:477] conv3_2 <- conv3_1
I1027 18:24:39.859556  5972 net.cpp:433] conv3_2 -> conv3_2
I1027 18:24:39.860257  5972 net.cpp:155] Setting up conv3_2
I1027 18:24:39.860265  5972 net.cpp:163] Top shape: 1 256 93 313 (7451904)
I1027 18:24:39.860270  5972 layer_factory.hpp:76] Creating layer relu3_2
I1027 18:24:39.860273  5972 net.cpp:110] Creating Layer relu3_2
I1027 18:24:39.860275  5972 net.cpp:477] relu3_2 <- conv3_2
I1027 18:24:39.860280  5972 net.cpp:419] relu3_2 -> conv3_2 (in-place)
I1027 18:24:39.860282  5972 net.cpp:155] Setting up relu3_2
I1027 18:24:39.860294  5972 net.cpp:163] Top shape: 1 256 93 313 (7451904)
I1027 18:24:39.860296  5972 layer_factory.hpp:76] Creating layer conv3_3
I1027 18:24:39.860302  5972 net.cpp:110] Creating Layer conv3_3
I1027 18:24:39.860306  5972 net.cpp:477] conv3_3 <- conv3_2
I1027 18:24:39.860308  5972 net.cpp:433] conv3_3 -> conv3_3
I1027 18:24:39.861011  5972 net.cpp:155] Setting up conv3_3
I1027 18:24:39.861021  5972 net.cpp:163] Top shape: 1 256 93 313 (7451904)
I1027 18:24:39.861024  5972 layer_factory.hpp:76] Creating layer relu3_3
I1027 18:24:39.861028  5972 net.cpp:110] Creating Layer relu3_3
I1027 18:24:39.861030  5972 net.cpp:477] relu3_3 <- conv3_3
I1027 18:24:39.861033  5972 net.cpp:419] relu3_3 -> conv3_3 (in-place)
I1027 18:24:39.861038  5972 net.cpp:155] Setting up relu3_3
I1027 18:24:39.861050  5972 net.cpp:163] Top shape: 1 256 93 313 (7451904)
I1027 18:24:39.861052  5972 layer_factory.hpp:76] Creating layer pool3
I1027 18:24:39.861057  5972 net.cpp:110] Creating Layer pool3
I1027 18:24:39.861058  5972 net.cpp:477] pool3 <- conv3_3
I1027 18:24:39.861062  5972 net.cpp:433] pool3 -> pool3
I1027 18:24:39.861066  5972 net.cpp:155] Setting up pool3
I1027 18:24:39.861069  5972 net.cpp:163] Top shape: 1 256 47 157 (1889024)
I1027 18:24:39.861071  5972 layer_factory.hpp:76] Creating layer conv4_1
I1027 18:24:39.861075  5972 net.cpp:110] Creating Layer conv4_1
I1027 18:24:39.861078  5972 net.cpp:477] conv4_1 <- pool3
I1027 18:24:39.861080  5972 net.cpp:433] conv4_1 -> conv4_1
I1027 18:24:39.862874  5972 net.cpp:155] Setting up conv4_1
I1027 18:24:39.862895  5972 net.cpp:163] Top shape: 1 512 47 157 (3778048)
I1027 18:24:39.862900  5972 layer_factory.hpp:76] Creating layer relu4_1
I1027 18:24:39.862908  5972 net.cpp:110] Creating Layer relu4_1
I1027 18:24:39.862915  5972 net.cpp:477] relu4_1 <- conv4_1
I1027 18:24:39.862929  5972 net.cpp:419] relu4_1 -> conv4_1 (in-place)
I1027 18:24:39.862936  5972 net.cpp:155] Setting up relu4_1
I1027 18:24:39.862939  5972 net.cpp:163] Top shape: 1 512 47 157 (3778048)
I1027 18:24:39.862941  5972 layer_factory.hpp:76] Creating layer conv4_2
I1027 18:24:39.862946  5972 net.cpp:110] Creating Layer conv4_2
I1027 18:24:39.862947  5972 net.cpp:477] conv4_2 <- conv4_1
I1027 18:24:39.862951  5972 net.cpp:433] conv4_2 -> conv4_2
I1027 18:24:39.865990  5972 net.cpp:155] Setting up conv4_2
I1027 18:24:39.866016  5972 net.cpp:163] Top shape: 1 512 47 157 (3778048)
I1027 18:24:39.866029  5972 layer_factory.hpp:76] Creating layer relu4_2
I1027 18:24:39.866036  5972 net.cpp:110] Creating Layer relu4_2
I1027 18:24:39.866039  5972 net.cpp:477] relu4_2 <- conv4_2
I1027 18:24:39.866055  5972 net.cpp:419] relu4_2 -> conv4_2 (in-place)
I1027 18:24:39.866062  5972 net.cpp:155] Setting up relu4_2
I1027 18:24:39.866065  5972 net.cpp:163] Top shape: 1 512 47 157 (3778048)
I1027 18:24:39.866066  5972 layer_factory.hpp:76] Creating layer conv4_3
I1027 18:24:39.866071  5972 net.cpp:110] Creating Layer conv4_3
I1027 18:24:39.866073  5972 net.cpp:477] conv4_3 <- conv4_2
I1027 18:24:39.866077  5972 net.cpp:433] conv4_3 -> conv4_3
I1027 18:24:39.869158  5972 net.cpp:155] Setting up conv4_3
I1027 18:24:39.869185  5972 net.cpp:163] Top shape: 1 512 47 157 (3778048)
I1027 18:24:39.869192  5972 layer_factory.hpp:76] Creating layer relu4_3
I1027 18:24:39.869200  5972 net.cpp:110] Creating Layer relu4_3
I1027 18:24:39.869204  5972 net.cpp:477] relu4_3 <- conv4_3
I1027 18:24:39.869210  5972 net.cpp:419] relu4_3 -> conv4_3 (in-place)
I1027 18:24:39.869227  5972 net.cpp:155] Setting up relu4_3
I1027 18:24:39.869230  5972 net.cpp:163] Top shape: 1 512 47 157 (3778048)
I1027 18:24:39.869231  5972 layer_factory.hpp:76] Creating layer pool4
I1027 18:24:39.869236  5972 net.cpp:110] Creating Layer pool4
I1027 18:24:39.869238  5972 net.cpp:477] pool4 <- conv4_3
I1027 18:24:39.869241  5972 net.cpp:433] pool4 -> pool4
I1027 18:24:39.869249  5972 net.cpp:155] Setting up pool4
I1027 18:24:39.869251  5972 net.cpp:163] Top shape: 1 512 24 79 (970752)
I1027 18:24:39.869254  5972 layer_factory.hpp:76] Creating layer conv5_1
I1027 18:24:39.869258  5972 net.cpp:110] Creating Layer conv5_1
I1027 18:24:39.869261  5972 net.cpp:477] conv5_1 <- pool4
I1027 18:24:39.869264  5972 net.cpp:433] conv5_1 -> conv5_1
I1027 18:24:39.872591  5972 net.cpp:155] Setting up conv5_1
I1027 18:24:39.872642  5972 net.cpp:163] Top shape: 1 512 24 79 (970752)
I1027 18:24:39.872654  5972 layer_factory.hpp:76] Creating layer relu5_1
I1027 18:24:39.872676  5972 net.cpp:110] Creating Layer relu5_1
I1027 18:24:39.872684  5972 net.cpp:477] relu5_1 <- conv5_1
I1027 18:24:39.872694  5972 net.cpp:419] relu5_1 -> conv5_1 (in-place)
I1027 18:24:39.872706  5972 net.cpp:155] Setting up relu5_1
I1027 18:24:39.872711  5972 net.cpp:163] Top shape: 1 512 24 79 (970752)
I1027 18:24:39.872716  5972 layer_factory.hpp:76] Creating layer conv5_2
I1027 18:24:39.872723  5972 net.cpp:110] Creating Layer conv5_2
I1027 18:24:39.872728  5972 net.cpp:477] conv5_2 <- conv5_1
I1027 18:24:39.872732  5972 net.cpp:433] conv5_2 -> conv5_2
I1027 18:24:39.875834  5972 net.cpp:155] Setting up conv5_2
I1027 18:24:39.875859  5972 net.cpp:163] Top shape: 1 512 24 79 (970752)
I1027 18:24:39.875866  5972 layer_factory.hpp:76] Creating layer relu5_2
I1027 18:24:39.875874  5972 net.cpp:110] Creating Layer relu5_2
I1027 18:24:39.875879  5972 net.cpp:477] relu5_2 <- conv5_2
I1027 18:24:39.875893  5972 net.cpp:419] relu5_2 -> conv5_2 (in-place)
I1027 18:24:39.875901  5972 net.cpp:155] Setting up relu5_2
I1027 18:24:39.875903  5972 net.cpp:163] Top shape: 1 512 24 79 (970752)
I1027 18:24:39.875905  5972 layer_factory.hpp:76] Creating layer conv5_3
I1027 18:24:39.875911  5972 net.cpp:110] Creating Layer conv5_3
I1027 18:24:39.875912  5972 net.cpp:477] conv5_3 <- conv5_2
I1027 18:24:39.875916  5972 net.cpp:433] conv5_3 -> conv5_3
I1027 18:24:39.879050  5972 net.cpp:155] Setting up conv5_3
I1027 18:24:39.879079  5972 net.cpp:163] Top shape: 1 512 24 79 (970752)
I1027 18:24:39.879087  5972 layer_factory.hpp:76] Creating layer relu5_3
I1027 18:24:39.879096  5972 net.cpp:110] Creating Layer relu5_3
I1027 18:24:39.879098  5972 net.cpp:477] relu5_3 <- conv5_3
I1027 18:24:39.879103  5972 net.cpp:419] relu5_3 -> conv5_3 (in-place)
I1027 18:24:39.879122  5972 net.cpp:155] Setting up relu5_3
I1027 18:24:39.879123  5972 net.cpp:163] Top shape: 1 512 24 79 (970752)
I1027 18:24:39.879125  5972 layer_factory.hpp:76] Creating layer conv5_3_relu5_3_0_split
I1027 18:24:39.879135  5972 net.cpp:110] Creating Layer conv5_3_relu5_3_0_split
I1027 18:24:39.879137  5972 net.cpp:477] conv5_3_relu5_3_0_split <- conv5_3
I1027 18:24:39.879140  5972 net.cpp:433] conv5_3_relu5_3_0_split -> conv5_3_relu5_3_0_split_0
I1027 18:24:39.879148  5972 net.cpp:433] conv5_3_relu5_3_0_split -> conv5_3_relu5_3_0_split_1
I1027 18:24:39.879151  5972 net.cpp:433] conv5_3_relu5_3_0_split -> conv5_3_relu5_3_0_split_2
I1027 18:24:39.879156  5972 net.cpp:155] Setting up conv5_3_relu5_3_0_split
I1027 18:24:39.879158  5972 net.cpp:163] Top shape: 1 512 24 79 (970752)
I1027 18:24:39.879161  5972 net.cpp:163] Top shape: 1 512 24 79 (970752)
I1027 18:24:39.879163  5972 net.cpp:163] Top shape: 1 512 24 79 (970752)
I1027 18:24:39.879165  5972 layer_factory.hpp:76] Creating layer roi_pool5_readonly
I1027 18:24:39.879180  5972 net.cpp:110] Creating Layer roi_pool5_readonly
I1027 18:24:39.879184  5972 net.cpp:477] roi_pool5_readonly <- conv5_3_relu5_3_0_split_0
I1027 18:24:39.879186  5972 net.cpp:477] roi_pool5_readonly <- rois_data_1_split_0
I1027 18:24:39.879189  5972 net.cpp:433] roi_pool5_readonly -> pool5_readonly
I1027 18:24:39.879194  5972 roi_pooling_layer.cpp:30] Spatial scale: 0.0625
I1027 18:24:39.879206  5972 net.cpp:155] Setting up roi_pool5_readonly
I1027 18:24:39.879209  5972 net.cpp:163] Top shape: 1 512 7 7 (25088)
I1027 18:24:39.879211  5972 layer_factory.hpp:76] Creating layer fc6_readonly
I1027 18:24:39.879217  5972 net.cpp:110] Creating Layer fc6_readonly
I1027 18:24:39.879221  5972 net.cpp:477] fc6_readonly <- pool5_readonly
I1027 18:24:39.879225  5972 net.cpp:433] fc6_readonly -> fc6_readonly
I1027 18:24:40.017621  5972 net.cpp:155] Setting up fc6_readonly
I1027 18:24:40.017648  5972 net.cpp:163] Top shape: 1 4096 (4096)
I1027 18:24:40.017658  5972 layer_factory.hpp:76] Creating layer relu6_readonly
I1027 18:24:40.017668  5972 net.cpp:110] Creating Layer relu6_readonly
I1027 18:24:40.017671  5972 net.cpp:477] relu6_readonly <- fc6_readonly
I1027 18:24:40.017686  5972 net.cpp:419] relu6_readonly -> fc6_readonly (in-place)
I1027 18:24:40.017695  5972 net.cpp:155] Setting up relu6_readonly
I1027 18:24:40.017698  5972 net.cpp:163] Top shape: 1 4096 (4096)
I1027 18:24:40.017699  5972 layer_factory.hpp:76] Creating layer drop6_readonly
I1027 18:24:40.017705  5972 net.cpp:110] Creating Layer drop6_readonly
I1027 18:24:40.017710  5972 net.cpp:477] drop6_readonly <- fc6_readonly
I1027 18:24:40.017714  5972 net.cpp:419] drop6_readonly -> fc6_readonly (in-place)
I1027 18:24:40.017719  5972 net.cpp:155] Setting up drop6_readonly
I1027 18:24:40.017720  5972 net.cpp:163] Top shape: 1 4096 (4096)
I1027 18:24:40.017722  5972 layer_factory.hpp:76] Creating layer fc7_readonly
I1027 18:24:40.017729  5972 net.cpp:110] Creating Layer fc7_readonly
I1027 18:24:40.017729  5972 net.cpp:477] fc7_readonly <- fc6_readonly
I1027 18:24:40.017732  5972 net.cpp:433] fc7_readonly -> fc7_readonly
I1027 18:24:40.040423  5972 net.cpp:155] Setting up fc7_readonly
I1027 18:24:40.040449  5972 net.cpp:163] Top shape: 1 4096 (4096)
I1027 18:24:40.040457  5972 layer_factory.hpp:76] Creating layer relu7_readonly
I1027 18:24:40.040467  5972 net.cpp:110] Creating Layer relu7_readonly
I1027 18:24:40.040472  5972 net.cpp:477] relu7_readonly <- fc7_readonly
I1027 18:24:40.040488  5972 net.cpp:419] relu7_readonly -> fc7_readonly (in-place)
I1027 18:24:40.040495  5972 net.cpp:155] Setting up relu7_readonly
I1027 18:24:40.040498  5972 net.cpp:163] Top shape: 1 4096 (4096)
I1027 18:24:40.040500  5972 layer_factory.hpp:76] Creating layer drop7_readonly
I1027 18:24:40.040505  5972 net.cpp:110] Creating Layer drop7_readonly
I1027 18:24:40.040508  5972 net.cpp:477] drop7_readonly <- fc7_readonly
I1027 18:24:40.040509  5972 net.cpp:419] drop7_readonly -> fc7_readonly (in-place)
I1027 18:24:40.040514  5972 net.cpp:155] Setting up drop7_readonly
I1027 18:24:40.040516  5972 net.cpp:163] Top shape: 1 4096 (4096)
I1027 18:24:40.040518  5972 layer_factory.hpp:76] Creating layer fc7_readonly_drop7_readonly_0_split
I1027 18:24:40.040523  5972 net.cpp:110] Creating Layer fc7_readonly_drop7_readonly_0_split
I1027 18:24:40.040524  5972 net.cpp:477] fc7_readonly_drop7_readonly_0_split <- fc7_readonly
I1027 18:24:40.040527  5972 net.cpp:433] fc7_readonly_drop7_readonly_0_split -> fc7_readonly_drop7_readonly_0_split_0
I1027 18:24:40.040531  5972 net.cpp:433] fc7_readonly_drop7_readonly_0_split -> fc7_readonly_drop7_readonly_0_split_1
I1027 18:24:40.040540  5972 net.cpp:155] Setting up fc7_readonly_drop7_readonly_0_split
I1027 18:24:40.040544  5972 net.cpp:163] Top shape: 1 4096 (4096)
I1027 18:24:40.040547  5972 net.cpp:163] Top shape: 1 4096 (4096)
I1027 18:24:40.040549  5972 layer_factory.hpp:76] Creating layer cls_score_readonly
I1027 18:24:40.040555  5972 net.cpp:110] Creating Layer cls_score_readonly
I1027 18:24:40.040558  5972 net.cpp:477] cls_score_readonly <- fc7_readonly_drop7_readonly_0_split_0
I1027 18:24:40.040562  5972 net.cpp:433] cls_score_readonly -> cls_score_readonly
I1027 18:24:40.041254  5972 net.cpp:155] Setting up cls_score_readonly
I1027 18:24:40.041259  5972 net.cpp:163] Top shape: 1 8 (8)
I1027 18:24:40.041273  5972 layer_factory.hpp:76] Creating layer bbox_pred_readonly
I1027 18:24:40.041278  5972 net.cpp:110] Creating Layer bbox_pred_readonly
I1027 18:24:40.041280  5972 net.cpp:477] bbox_pred_readonly <- fc7_readonly_drop7_readonly_0_split_1
I1027 18:24:40.041285  5972 net.cpp:433] bbox_pred_readonly -> bbox_pred_readonly
I1027 18:24:40.043903  5972 net.cpp:155] Setting up bbox_pred_readonly
I1027 18:24:40.043910  5972 net.cpp:163] Top shape: 1 32 (32)
I1027 18:24:40.043916  5972 layer_factory.hpp:76] Creating layer cls_prob_readonly
I1027 18:24:40.043920  5972 net.cpp:110] Creating Layer cls_prob_readonly
I1027 18:24:40.043922  5972 net.cpp:477] cls_prob_readonly <- cls_score_readonly
I1027 18:24:40.043926  5972 net.cpp:433] cls_prob_readonly -> cls_prob_readonly
I1027 18:24:40.043949  5972 net.cpp:155] Setting up cls_prob_readonly
I1027 18:24:40.043952  5972 net.cpp:163] Top shape: 1 8 (8)
I1027 18:24:40.043954  5972 layer_factory.hpp:76] Creating layer hard_roi_mining
I1027 18:24:40.044004  5972 net.cpp:110] Creating Layer hard_roi_mining
I1027 18:24:40.044008  5972 net.cpp:477] hard_roi_mining <- cls_prob_readonly
I1027 18:24:40.044011  5972 net.cpp:477] hard_roi_mining <- bbox_pred_readonly
I1027 18:24:40.044013  5972 net.cpp:477] hard_roi_mining <- rois_data_1_split_1
I1027 18:24:40.044015  5972 net.cpp:477] hard_roi_mining <- labels
I1027 18:24:40.044018  5972 net.cpp:477] hard_roi_mining <- bbox_targets
I1027 18:24:40.044020  5972 net.cpp:477] hard_roi_mining <- bbox_inside_weights
I1027 18:24:40.044023  5972 net.cpp:477] hard_roi_mining <- bbox_outside_weights
I1027 18:24:40.044025  5972 net.cpp:433] hard_roi_mining -> rois_hard
I1027 18:24:40.044041  5972 net.cpp:433] hard_roi_mining -> labels_hard
I1027 18:24:40.044045  5972 net.cpp:433] hard_roi_mining -> bbox_targets_hard
I1027 18:24:40.044049  5972 net.cpp:433] hard_roi_mining -> bbox_inside_weights_hard
I1027 18:24:40.044054  5972 net.cpp:433] hard_roi_mining -> bbox_outside_weights_hard
OHEMDataLayer: name_to_top: {'bbox_outside_weights_hard': 4, 'bbox_inside_weights_hard': 3, 'labels_hard': 1, 'rois_hard': 0, 'bbox_targets_hard': 2}
I1027 18:24:40.044395  5972 net.cpp:155] Setting up hard_roi_mining
I1027 18:24:40.044402  5972 net.cpp:163] Top shape: 1 5 (5)
I1027 18:24:40.044404  5972 net.cpp:163] Top shape: 1 (1)
I1027 18:24:40.044407  5972 net.cpp:163] Top shape: 1 32 (32)
I1027 18:24:40.044409  5972 net.cpp:163] Top shape: 1 32 (32)
I1027 18:24:40.044411  5972 net.cpp:163] Top shape: 1 32 (32)
I1027 18:24:40.044414  5972 layer_factory.hpp:76] Creating layer roi_pool5
I1027 18:24:40.044419  5972 net.cpp:110] Creating Layer roi_pool5
I1027 18:24:40.044420  5972 net.cpp:477] roi_pool5 <- conv5_3_relu5_3_0_split_1
I1027 18:24:40.044425  5972 net.cpp:477] roi_pool5 <- rois_hard
I1027 18:24:40.044427  5972 net.cpp:433] roi_pool5 -> pool5
I1027 18:24:40.044432  5972 roi_pooling_layer.cpp:30] Spatial scale: 0.0625
I1027 18:24:40.044442  5972 net.cpp:155] Setting up roi_pool5
I1027 18:24:40.044445  5972 net.cpp:163] Top shape: 1 512 7 7 (25088)
I1027 18:24:40.044447  5972 layer_factory.hpp:76] Creating layer fc6
I1027 18:24:40.044461  5972 net.cpp:110] Creating Layer fc6
I1027 18:24:40.044463  5972 net.cpp:477] fc6 <- pool5
I1027 18:24:40.044466  5972 net.cpp:433] fc6 -> fc6
I1027 18:24:40.181933  5972 net.cpp:155] Setting up fc6
I1027 18:24:40.181963  5972 net.cpp:163] Top shape: 1 4096 (4096)
I1027 18:24:40.181970  5972 net.cpp:537] Sharing parameters 'fc6_w' owned by layer 'fc6_readonly', param index 0
I1027 18:24:40.181975  5972 net.cpp:537] Sharing parameters 'fc6_b' owned by layer 'fc6_readonly', param index 1
I1027 18:24:40.181977  5972 layer_factory.hpp:76] Creating layer relu6
I1027 18:24:40.181985  5972 net.cpp:110] Creating Layer relu6
I1027 18:24:40.181989  5972 net.cpp:477] relu6 <- fc6
I1027 18:24:40.181994  5972 net.cpp:419] relu6 -> fc6 (in-place)
I1027 18:24:40.182013  5972 net.cpp:155] Setting up relu6
I1027 18:24:40.182014  5972 net.cpp:163] Top shape: 1 4096 (4096)
I1027 18:24:40.182016  5972 layer_factory.hpp:76] Creating layer drop6
I1027 18:24:40.182023  5972 net.cpp:110] Creating Layer drop6
I1027 18:24:40.182024  5972 net.cpp:477] drop6 <- fc6
I1027 18:24:40.182027  5972 net.cpp:419] drop6 -> fc6 (in-place)
I1027 18:24:40.182031  5972 net.cpp:155] Setting up drop6
I1027 18:24:40.182034  5972 net.cpp:163] Top shape: 1 4096 (4096)
I1027 18:24:40.182035  5972 layer_factory.hpp:76] Creating layer fc7
I1027 18:24:40.182040  5972 net.cpp:110] Creating Layer fc7
I1027 18:24:40.182042  5972 net.cpp:477] fc7 <- fc6
I1027 18:24:40.182046  5972 net.cpp:433] fc7 -> fc7
I1027 18:24:40.204627  5972 net.cpp:155] Setting up fc7
I1027 18:24:40.204654  5972 net.cpp:163] Top shape: 1 4096 (4096)
I1027 18:24:40.204661  5972 net.cpp:537] Sharing parameters 'fc7_w' owned by layer 'fc7_readonly', param index 0
I1027 18:24:40.204665  5972 net.cpp:537] Sharing parameters 'fc7_b' owned by layer 'fc7_readonly', param index 1
I1027 18:24:40.204668  5972 layer_factory.hpp:76] Creating layer relu7
I1027 18:24:40.204675  5972 net.cpp:110] Creating Layer relu7
I1027 18:24:40.204680  5972 net.cpp:477] relu7 <- fc7
I1027 18:24:40.204695  5972 net.cpp:419] relu7 -> fc7 (in-place)
I1027 18:24:40.204707  5972 net.cpp:155] Setting up relu7
I1027 18:24:40.204710  5972 net.cpp:163] Top shape: 1 4096 (4096)
I1027 18:24:40.204711  5972 layer_factory.hpp:76] Creating layer drop7
I1027 18:24:40.204717  5972 net.cpp:110] Creating Layer drop7
I1027 18:24:40.204720  5972 net.cpp:477] drop7 <- fc7
I1027 18:24:40.204721  5972 net.cpp:419] drop7 -> fc7 (in-place)
I1027 18:24:40.204725  5972 net.cpp:155] Setting up drop7
I1027 18:24:40.204727  5972 net.cpp:163] Top shape: 1 4096 (4096)
I1027 18:24:40.204730  5972 layer_factory.hpp:76] Creating layer fc7_drop7_0_split
I1027 18:24:40.204733  5972 net.cpp:110] Creating Layer fc7_drop7_0_split
I1027 18:24:40.204735  5972 net.cpp:477] fc7_drop7_0_split <- fc7
I1027 18:24:40.204738  5972 net.cpp:433] fc7_drop7_0_split -> fc7_drop7_0_split_0
I1027 18:24:40.204743  5972 net.cpp:433] fc7_drop7_0_split -> fc7_drop7_0_split_1
I1027 18:24:40.204747  5972 net.cpp:155] Setting up fc7_drop7_0_split
I1027 18:24:40.204749  5972 net.cpp:163] Top shape: 1 4096 (4096)
I1027 18:24:40.204752  5972 net.cpp:163] Top shape: 1 4096 (4096)
I1027 18:24:40.204754  5972 layer_factory.hpp:76] Creating layer cls_score
I1027 18:24:40.204759  5972 net.cpp:110] Creating Layer cls_score
I1027 18:24:40.204762  5972 net.cpp:477] cls_score <- fc7_drop7_0_split_0
I1027 18:24:40.204766  5972 net.cpp:433] cls_score -> cls_score
I1027 18:24:40.205453  5972 net.cpp:155] Setting up cls_score
I1027 18:24:40.205458  5972 net.cpp:163] Top shape: 1 8 (8)
I1027 18:24:40.205461  5972 net.cpp:537] Sharing parameters 'cls_score_w' owned by layer 'cls_score_readonly', param index 0
I1027 18:24:40.205464  5972 net.cpp:537] Sharing parameters 'cls_score_b' owned by layer 'cls_score_readonly', param index 1
I1027 18:24:40.205466  5972 layer_factory.hpp:76] Creating layer bbox_pred
I1027 18:24:40.205471  5972 net.cpp:110] Creating Layer bbox_pred
I1027 18:24:40.205473  5972 net.cpp:477] bbox_pred <- fc7_drop7_0_split_1
I1027 18:24:40.205477  5972 net.cpp:433] bbox_pred -> bbox_pred
I1027 18:24:40.208390  5972 net.cpp:155] Setting up bbox_pred
I1027 18:24:40.208398  5972 net.cpp:163] Top shape: 1 32 (32)
I1027 18:24:40.208401  5972 net.cpp:537] Sharing parameters 'bbox_pred_w' owned by layer 'bbox_pred_readonly', param index 0
I1027 18:24:40.208405  5972 net.cpp:537] Sharing parameters 'bbox_pred_b' owned by layer 'bbox_pred_readonly', param index 1
I1027 18:24:40.208406  5972 layer_factory.hpp:76] Creating layer loss_cls
I1027 18:24:40.208411  5972 net.cpp:110] Creating Layer loss_cls
I1027 18:24:40.208413  5972 net.cpp:477] loss_cls <- cls_score
…
I1027 18:24:40.208525  5972 net.cpp:433] loss_bbox -> loss_bbox
I1027 18:24:40.208559  5972 net.cpp:155] Setting up loss_bbox
I1027 18:24:40.208562  5972 net.cpp:163] Top shape: (1)
I1027 18:24:40.208564  5972 net.cpp:168]     with loss weight 1
I1027 18:24:40.208569  5972 layer_factory.hpp:76] Creating layer rpn_conv/3x3
I1027 18:24:40.208573  5972 net.cpp:110] Creating Layer rpn_conv/3x3
I1027 18:24:40.208576  5972 net.cpp:477] rpn_conv/3x3 <- conv5_3_relu5_3_0_split_2
I1027 18:24:40.208580  5972 net.cpp:433] rpn_conv/3x3 -> rpn/output
I1027 18:24:40.256438  5972 net.cpp:155] Setting up rpn_conv/3x3
I1027 18:24:40.256461  5972 net.cpp:163] Top shape: 1 512 24 79 (970752)
I1027 18:24:40.256469  5972 layer_factory.hpp:76] Creating layer rpn_relu/3x3
I1027 18:24:40.256476  5972 net.cpp:110] Creating Layer rpn_relu/3x3
I1027 18:24:40.256480  5972 net.cpp:477] rpn_relu/3x3 <- rpn/output
I1027 18:24:40.256495  5972 net.cpp:419] rpn_relu/3x3 -> rpn/output (in-place)
I1027 18:24:40.256505  5972 net.cpp:155] Setting up rpn_relu/3x3
I1027 18:24:40.256506  5972 net.cpp:163] Top shape: 1 512 24 79 (970752)
I1027 18:24:40.256508  5972 layer_factory.hpp:76] Creating layer rpn/output_rpn_relu/3x3_0_split
I1027 18:24:40.256512  5972 net.cpp:110] Creating Layer rpn/output_rpn_relu/3x3_0_split
I1027 18:24:40.256515  5972 net.cpp:477] rpn/output_rpn_relu/3x3_0_split <- rpn/output
I1027 18:24:40.256517  5972 net.cpp:433] rpn/output_rpn_relu/3x3_0_split -> rpn/output_rpn_relu/3x3_0_split_0
I1027 18:24:40.256521  5972 net.cpp:433] rpn/output_rpn_relu/3x3_0_split -> rpn/output_rpn_relu/3x3_0_split_1
I1027 18:24:40.256526  5972 net.cpp:155] Setting up rpn/output_rpn_relu/3x3_0_split
I1027 18:24:40.256530  5972 net.cpp:163] Top shape: 1 512 24 79 (970752)
I1027 18:24:40.256531  5972 net.cpp:163] Top shape: 1 512 24 79 (970752)
I1027 18:24:40.256533  5972 layer_factory.hpp:76] Creating layer rpn_cls_score
I1027 18:24:40.256538  5972 net.cpp:110] Creating Layer rpn_cls_score
I1027 18:24:40.256541  5972 net.cpp:477] rpn_cls_score <- rpn/output_rpn_relu/3x3_0_split_0
I1027 18:24:40.256543  5972 net.cpp:433] rpn_cls_score -> rpn_cls_score
I1027 18:24:40.256786  5972 net.cpp:155] Setting up rpn_cls_score
I1027 18:24:40.256791  5972 net.cpp:163] Top shape: 1 18 24 79 (34128)
I1027 18:24:40.256794  5972 layer_factory.hpp:76] Creating layer rpn_bbox_pred
I1027 18:24:40.256799  5972 net.cpp:110] Creating Layer rpn_bbox_pred
I1027 18:24:40.256801  5972 net.cpp:477] rpn_bbox_pred <- rpn/output_rpn_relu/3x3_0_split_1
I1027 18:24:40.256805  5972 net.cpp:433] rpn_bbox_pred -> rpn_bbox_pred
I1027 18:24:40.257222  5972 net.cpp:155] Setting up rpn_bbox_pred
I1027 18:24:40.257227  5972 net.cpp:163] Top shape: 1 36 24 79 (68256)
I1027 18:24:40.257230  5972 layer_factory.hpp:76] Creating layer silence_rpn_cls_score
I1027 18:24:40.257235  5972 net.cpp:110] Creating Layer silence_rpn_cls_score
I1027 18:24:40.257238  5972 net.cpp:477] silence_rpn_cls_score <- rpn_cls_score
I1027 18:24:40.257241  5972 net.cpp:155] Setting up silence_rpn_cls_score
I1027 18:24:40.257243  5972 layer_factory.hpp:76] Creating layer silence_rpn_bbox_pred
…
           'RPN_POST_NMS_TOP_N': 2000,
           'RPN_PRE_NMS_TOP_N': 12000,
           'SCALES': [370],
           'SNAPSHOT_INFIX': '',
           'SNAPSHOT_ITERS': 10000,
           'USE_FLIPPED': True,
           'USE_PREFETCH': False},
 'USE_GPU_NMS': True}
WARNING: Logging before InitGoogleLogging() is written to STDERR
I1027 20:04:54.848768  6776 net.cpp:50] Initializing net from parameters: 
name: "VGG_ILSVRC_16_layers"
input: "data"
input: "im_info"
state {
  phase: TEST
}
input_shape {
  dim: 1
  dim: 3
  dim: 224
  dim: 224
}
input_shape {
  dim: 1
  dim: 3
}
layer {
  name: "conv1_1"
  type: "Convolution"
  bottom: "data"
  top: "conv1_1"
  convolution_param {
    num_output: 64
    pad: 1
    kernel_size: 3
  }
}
layer {
  name: "relu1_1"
  type: "ReLU"
  bottom: "conv1_1"
  top: "conv1_1"
}
layer {
  name: "conv1_2"
  type: "Convolution"
  bottom: "conv1_1"
  top: "conv1_2"
  convolution_param {
    num_output: 64
    pad: 1
    kernel_size: 3
  }
}
layer {
  name: "relu1_2"
  type: "ReLU"
  bottom: "conv1_2"
  top: "conv1_2"
}
layer {
  name: "pool1"
  type: "Pooling"
  bottom: "conv1_2"
  top: "pool1"
  pooling_param {
    pool: MAX
    kernel_size: 2
    stride: 2
  }
}
layer {
  name: "conv2_1"
  type: "Convolution"
  bottom: "pool1"
  top: "conv2_1"
  convolution_param {
    num_output: 128
    pad: 1
    kernel_size: 3
  }
}
layer {
  name: "relu2_1"
  type: "ReLU"
  bottom: "conv2_1"
  top: "conv2_1"
}
layer {
  name: "conv2_2"
  type: "Convolution"
  bottom: "conv2_1"
  top: "conv2_2"
  convolution_param {
    num_output: 128
    pad: 1
    kernel_size: 3
  }
}
layer {
  name: "relu2_2"
  type: "ReLU"
  bottom: "conv2_2"
  top: "conv2_2"
}
layer {
  name: "pool2"
  type: "Pooling"
  bottom: "conv2_2"
  top: "pool2"
  pooling_param {
    pool: MAX
    kernel_size: 2
    stride: 2
  }
}
layer {
  name: "conv3_1"
  type: "Convolution"
  bottom: "pool2"
  top: "conv3_1"
  convolution_param {
    num_output: 256
    pad: 1
    kernel_size: 3
  }
}
layer {
  name: "relu3_1"
  type: "ReLU"
  bottom: "conv3_1"
  top: "conv3_1"
}
layer {
  name: "conv3_2"
  type: "Convolution"
  bottom: "conv3_1"
  top: "conv3_2"
  convolution_param {
    num_output: 256
    pad: 1
    kernel_size: 3
  }
}
layer {
  name: "relu3_2"
  type: "ReLU"
  bottom: "conv3_2"
  top: "conv3_2"
}
layer {
  name: "conv3_3"
  type: "Convolution"
  bottom: "conv3_2"
  top: "conv3_3"
  convolution_param {
    num_output: 256
    pad: 1
    kernel_size: 3
  }
}
layer {
  name: "relu3_3"
  type: "ReLU"
  bottom: "conv3_3"
  top: "conv3_3"
}
layer {
  name: "pool3"
  type: "Pooling"
  bottom: "conv3_3"
  top: "pool3"
  pooling_param {
    pool: MAX
    kernel_size: 2
    stride: 2
  }
}
layer {
  name: "conv4_1"
  type: "Convolution"
  bottom: "pool3"
  top: "conv4_1"
  convolution_param {
    num_output: 512
    pad: 1
    kernel_size: 3
  }
}
layer {
  name: "relu4_1"
  type: "ReLU"
  bottom: "conv4_1"
  top: "conv4_1"
}
layer {
  name: "conv4_2"
  type: "Convolution"
  bottom: "conv4_1"
  top: "conv4_2"
  convolution_param {
    num_output: 512
    pad: 1
    kernel_size: 3
  }
}
layer {
  name: "relu4_2"
  type: "ReLU"
  bottom: "conv4_2"
  top: "conv4_2"
}
layer {
  name: "conv4_3"
  type: "Convolution"
  bottom: "conv4_2"
  top: "conv4_3"
  convolution_param {
    num_output: 512
    pad: 1
    kernel_size: 3
  }
}
layer {
  name: "relu4_3"
  type: "ReLU"
  bottom: "conv4_3"
  top: "conv4_3"
}
layer {
  name: "pool4"
  type: "Pooling"
  bottom: "conv4_3"
  top: "pool4"
  pooling_param {
    pool: MAX
    kernel_size: 2
    stride: 2
  }
}
layer {
  name: "conv5_1"
  type: "Convolution"
  bottom: "pool4"
  top: "conv5_1"
  convolution_param {
    num_output: 512
    pad: 1
    kernel_size: 3
  }
}
layer {
  name: "relu5_1"
  type: "ReLU"
  bottom: "conv5_1"
  top: "conv5_1"
}
layer {
  name: "conv5_2"
  type: "Convolution"
  bottom: "conv5_1"
  top: "conv5_2"
  convolution_param {
    num_output: 512
    pad: 1
    kernel_size: 3
  }
}
layer {
  name: "relu5_2"
  type: "ReLU"
  bottom: "conv5_2"
  top: "conv5_2"
}
layer {
  name: "conv5_3"
  type: "Convolution"
  bottom: "conv5_2"
  top: "conv5_3"
  convolution_param {
    num_output: 512
    pad: 1
    kernel_size: 3
  }
}
layer {
  name: "relu5_3"
  type: "ReLU"
  bottom: "conv5_3"
  top: "conv5_3"
}
layer {
  name: "rpn_conv/3x3"
  type: "Convolution"
  bottom: "conv5_3"
  top: "rpn/output"
  convolution_param {
    num_output: 512
    pad: 1
    kernel_size: 3
    stride: 1
  }
}
layer {
  name: "rpn_relu/3x3"
  type: "ReLU"
  bottom: "rpn/output"
  top: "rpn/output"
}
layer {
  name: "rpn_cls_score"
  type: "Convolution"
  bottom: "rpn/output"
  top: "rpn_cls_score"
  convolution_param {
    num_output: 18
    pad: 0
    kernel_size: 1
    stride: 1
  }
}
layer {
  name: "rpn_bbox_pred"
  type: "Convolution"
  bottom: "rpn/output"
  top: "rpn_bbox_pred"
  convolution_param {
    num_output: 36
    pad: 0
    kernel_size: 1
    stride: 1
  }
}
layer {
  name: "rpn_cls_score_reshape"
  type: "Reshape"
  bottom: "rpn_cls_score"
  top: "rpn_cls_score_reshape"
  reshape_param {
    shape {
      dim: 0
      dim: 2
      dim: -1
      dim: 0
    }
  }
}
layer {
  name: "rpn_cls_prob"
  type: "Softmax"
  bottom: "rpn_cls_score_reshape"
  top: "rpn_cls_prob"
}
layer {
  name: "rpn_cls_prob_reshape"
  type: "Reshape"
  bottom: "rpn_cls_prob"
  top: "rpn_cls_prob_reshape"
  reshape_param {
    shape {
      dim: 0
      dim: 18
      dim: -1
      dim: 0
    }
  }
}
layer {
  name: "proposal"
  type: "Python"
  bottom: "rpn_cls_prob_reshape"
  bottom: "rpn_bbox_pred"
  bottom: "im_info"
  top: "rois"
  python_param {
    module: "rpn.proposal_layer"
    layer: "ProposalLayer"
    param_str: "\'feat_stride\': 16"
  }
}
layer {
  name: "roi_pool5"
  type: "ROIPooling"
  bottom: "conv5_3"
  bottom: "rois"
  top: "pool5"
  roi_pooling_param {
    pooled_h: 7
    pooled_w: 7
    spatial_scale: 0.0625
  }
}
layer {
  name: "fc6"
  type: "InnerProduct"
  bottom: "pool5"
  top: "fc6"
  inner_product_param {
    num_output: 4096
  }
}
layer {
  name: "relu6"
  type: "ReLU"
  bottom: "fc6"
  top: "fc6"
}
layer {
  name: "fc7"
  type: "InnerProduct"
  bottom: "fc6"
  top: "fc7"
  inner_product_param {
    num_output: 4096
  }
}
layer {
  name: "relu7"
  type: "ReLU"
  bottom: "fc7"
  top: "fc7"
}
layer {
  name: "cls_score"
  type: "InnerProduct"
  bottom: "fc7"
  top: "cls_score"
  inner_product_param {
    num_output: 8
  }
}
layer {
  name: "bbox_pred"
  type: "InnerProduct"
  bottom: "fc7"
  top: "bbox_pred"
  inner_product_param {
    num_output: 32
  }
}
layer {
  name: "cls_prob"
  type: "Softmax"
  bottom: "cls_score"
  top: "cls_prob"
}
I1027 20:04:54.848891  6776 net.cpp:435] Input 0 -> data
I1027 20:04:54.848906  6776 net.cpp:435] Input 1 -> im_info
I1027 20:04:54.848917  6776 layer_factory.hpp:76] Creating layer conv1_1
I1027 20:04:54.848925  6776 net.cpp:110] Creating Layer conv1_1
I1027 20:04:54.848929  6776 net.cpp:477] conv1_1 <- data
I1027 20:04:54.848935  6776 net.cpp:433] conv1_1 -> conv1_1
I1027 20:04:54.910576  6776 net.cpp:155] Setting up conv1_1
I1027 20:04:54.910601  6776 net.cpp:163] Top shape: 1 64 224 224 (3211264)
I1027 20:04:54.910619  6776 layer_factory.hpp:76] Creating layer relu1_1
I1027 20:04:54.910631  6776 net.cpp:110] Creating Layer relu1_1
I1027 20:04:54.910640  6776 net.cpp:477] relu1_1 <- conv1_1
I1027 20:04:54.910646  6776 net.cpp:419] relu1_1 -> conv1_1 (in-place)
I1027 20:04:54.910668  6776 net.cpp:155] Setting up relu1_1
I1027 20:04:54.910676  6776 net.cpp:163] Top shape: 1 64 224 224 (3211264)
I1027 20:04:54.910679  6776 layer_factory.hpp:76] Creating layer conv1_2
I1027 20:04:54.910689  6776 net.cpp:110] Creating Layer conv1_2
I1027 20:04:54.910696  6776 net.cpp:477] conv1_2 <- conv1_1
I1027 20:04:54.910701  6776 net.cpp:433] conv1_2 -> conv1_2
I1027 20:04:54.910796  6776 net.cpp:155] Setting up conv1_2
I1027 20:04:54.910806  6776 net.cpp:163] Top shape: 1 64 224 224 (3211264)
I1027 20:04:54.910816  6776 layer_factory.hpp:76] Creating layer relu1_2
I1027 20:04:54.910823  6776 net.cpp:110] Creating Layer relu1_2
I1027 20:04:54.910828  6776 net.cpp:477] relu1_2 <- conv1_2
I1027 20:04:54.910835  6776 net.cpp:419] relu1_2 -> conv1_2 (in-place)
I1027 20:04:54.910841  6776 net.cpp:155] Setting up relu1_2
I1027 20:04:54.910846  6776 net.cpp:163] Top shape: 1 64 224 224 (3211264)
I1027 20:04:54.910851  6776 layer_factory.hpp:76] Creating layer pool1
I1027 20:04:54.910857  6776 net.cpp:110] Creating Layer pool1
I1027 20:04:54.910861  6776 net.cpp:477] pool1 <- conv1_2
I1027 20:04:54.910868  6776 net.cpp:433] pool1 -> pool1
I1027 20:04:54.910878  6776 net.cpp:155] Setting up pool1
I1027 20:04:54.910884  6776 net.cpp:163] Top shape: 1 64 112 112 (802816)
I1027 20:04:54.910887  6776 layer_factory.hpp:76] Creating layer conv2_1
I1027 20:04:54.910904  6776 net.cpp:110] Creating Layer conv2_1
I1027 20:04:54.910908  6776 net.cpp:477] conv2_1 <- pool1
I1027 20:04:54.910912  6776 net.cpp:433] conv2_1 -> conv2_1
I1027 20:04:54.911550  6776 net.cpp:155] Setting up conv2_1
I1027 20:04:54.911561  6776 net.cpp:163] Top shape: 1 128 112 112 (1605632)
I1027 20:04:54.911571  6776 layer_factory.hpp:76] Creating layer relu2_1
I1027 20:04:54.911579  6776 net.cpp:110] Creating Layer relu2_1
I1027 20:04:54.911584  6776 net.cpp:477] relu2_1 <- conv2_1
I1027 20:04:54.911590  6776 net.cpp:419] relu2_1 -> conv2_1 (in-place)
I1027 20:04:54.911598  6776 net.cpp:155] Setting up relu2_1
I1027 20:04:54.911614  6776 net.cpp:163] Top shape: 1 128 112 112 (1605632)
I1027 20:04:54.911618  6776 layer_factory.hpp:76] Creating layer conv2_2
I1027 20:04:54.911624  6776 net.cpp:110] Creating Layer conv2_2
I1027 20:04:54.911628  6776 net.cpp:477] conv2_2 <- conv2_1
I1027 20:04:54.911634  6776 net.cpp:433] conv2_2 -> conv2_2
I1027 20:04:54.911764  6776 net.cpp:155] Setting up conv2_2
I1027 20:04:54.911773  6776 net.cpp:163] Top shape: 1 128 112 112 (1605632)
I1027 20:04:54.911780  6776 layer_factory.hpp:76] Creating layer relu2_2
I1027 20:04:54.911798  6776 net.cpp:110] Creating Layer relu2_2
I1027 20:04:54.911803  6776 net.cpp:477] relu2_2 <- conv2_2
I1027 20:04:54.911809  6776 net.cpp:419] relu2_2 -> conv2_2 (in-place)
I1027 20:04:54.911816  6776 net.cpp:155] Setting up relu2_2
I1027 20:04:54.911823  6776 net.cpp:163] Top shape: 1 128 112 112 (1605632)
I1027 20:04:54.911826  6776 layer_factory.hpp:76] Creating layer pool2
I1027 20:04:54.911841  6776 net.cpp:110] Creating Layer pool2
I1027 20:04:54.911845  6776 net.cpp:477] pool2 <- conv2_2
I1027 20:04:54.911850  6776 net.cpp:433] pool2 -> pool2
I1027 20:04:54.911859  6776 net.cpp:155] Setting up pool2
I1027 20:04:54.911864  6776 net.cpp:163] Top shape: 1 128 56 56 (401408)
I1027 20:04:54.911867  6776 layer_factory.hpp:76] Creating layer conv3_1
I1027 20:04:54.911872  6776 net.cpp:110] Creating Layer conv3_1
I1027 20:04:54.911876  6776 net.cpp:477] conv3_1 <- pool2
I1027 20:04:54.911881  6776 net.cpp:433] conv3_1 -> conv3_1
I1027 20:04:54.912449  6776 net.cpp:155] Setting up conv3_1
I1027 20:04:54.912461  6776 net.cpp:163] Top shape: 1 256 56 56 (802816)
I1027 20:04:54.912472  6776 layer_factory.hpp:76] Creating layer relu3_1
I1027 20:04:54.912478  6776 net.cpp:110] Creating Layer relu3_1
I1027 20:04:54.912482  6776 net.cpp:477] relu3_1 <- conv3_1
I1027 20:04:54.912489  6776 net.cpp:419] relu3_1 -> conv3_1 (in-place)
I1027 20:04:54.912497  6776 net.cpp:155] Setting up relu3_1
I1027 20:04:54.912503  6776 net.cpp:163] Top shape: 1 256 56 56 (802816)
I1027 20:04:54.912508  6776 layer_factory.hpp:76] Creating layer conv3_2
I1027 20:04:54.912513  6776 net.cpp:110] Creating Layer conv3_2
I1027 20:04:54.912518  6776 net.cpp:477] conv3_2 <- conv3_1
I1027 20:04:54.912523  6776 net.cpp:433] conv3_2 -> conv3_2
I1027 20:04:54.913446  6776 net.cpp:155] Setting up conv3_2
I1027 20:04:54.913456  6776 net.cpp:163] Top shape: 1 256 56 56 (802816)
I1027 20:04:54.913465  6776 layer_factory.hpp:76] Creating layer relu3_2
I1027 20:04:54.913472  6776 net.cpp:110] Creating Layer relu3_2
I1027 20:04:54.913476  6776 net.cpp:477] relu3_2 <- conv3_2
I1027 20:04:54.913482  6776 net.cpp:419] relu3_2 -> conv3_2 (in-place)
I1027 20:04:54.913498  6776 net.cpp:155] Setting up relu3_2
I1027 20:04:54.913503  6776 net.cpp:163] Top shape: 1 256 56 56 (802816)
I1027 20:04:54.913507  6776 layer_factory.hpp:76] Creating layer conv3_3
I1027 20:04:54.913513  6776 net.cpp:110] Creating Layer conv3_3
I1027 20:04:54.913517  6776 net.cpp:477] conv3_3 <- conv3_2
I1027 20:04:54.913522  6776 net.cpp:433] conv3_3 -> conv3_3
I1027 20:04:54.914408  6776 net.cpp:155] Setting up conv3_3
I1027 20:04:54.914418  6776 net.cpp:163] Top shape: 1 256 56 56 (802816)
I1027 20:04:54.914425  6776 layer_factory.hpp:76] Creating layer relu3_3
I1027 20:04:54.914432  6776 net.cpp:110] Creating Layer relu3_3
I1027 20:04:54.914436  6776 net.cpp:477] relu3_3 <- conv3_3
I1027 20:04:54.914451  6776 net.cpp:419] relu3_3 -> conv3_3 (in-place)
I1027 20:04:54.914458  6776 net.cpp:155] Setting up relu3_3
I1027 20:04:54.914463  6776 net.cpp:163] Top shape: 1 256 56 56 (802816)
I1027 20:04:54.914466  6776 layer_factory.hpp:76] Creating layer pool3
I1027 20:04:54.914484  6776 net.cpp:110] Creating Layer pool3
I1027 20:04:54.914487  6776 net.cpp:477] pool3 <- conv3_3
I1027 20:04:54.914492  6776 net.cpp:433] pool3 -> pool3
I1027 20:04:54.914501  6776 net.cpp:155] Setting up pool3
I1027 20:04:54.914507  6776 net.cpp:163] Top shape: 1 256 28 28 (200704)
I1027 20:04:54.914511  6776 layer_factory.hpp:76] Creating layer conv4_1
I1027 20:04:54.914520  6776 net.cpp:110] Creating Layer conv4_1
I1027 20:04:54.914523  6776 net.cpp:477] conv4_1 <- pool3
I1027 20:04:54.914530  6776 net.cpp:433] conv4_1 -> conv4_1
I1027 20:04:54.916425  6776 net.cpp:155] Setting up conv4_1
I1027 20:04:54.916443  6776 net.cpp:163] Top shape: 1 512 28 28 (401408)
I1027 20:04:54.916452  6776 layer_factory.hpp:76] Creating layer relu4_1
I1027 20:04:54.916460  6776 net.cpp:110] Creating Layer relu4_1
I1027 20:04:54.916465  6776 net.cpp:477] relu4_1 <- conv4_1
I1027 20:04:54.916472  6776 net.cpp:419] relu4_1 -> conv4_1 (in-place)
I1027 20:04:54.916481  6776 net.cpp:155] Setting up relu4_1
I1027 20:04:54.916491  6776 net.cpp:163] Top shape: 1 512 28 28 (401408)
I1027 20:04:54.916496  6776 layer_factory.hpp:76] Creating layer conv4_2
I1027 20:04:54.916502  6776 net.cpp:110] Creating Layer conv4_2
I1027 20:04:54.916506  6776 net.cpp:477] conv4_2 <- conv4_1
I1027 20:04:54.916512  6776 net.cpp:433] conv4_2 -> conv4_2
I1027 20:04:54.920279  6776 net.cpp:155] Setting up conv4_2
I1027 20:04:54.920308  6776 net.cpp:163] Top shape: 1 512 28 28 (401408)
I1027 20:04:54.920336  6776 layer_factory.hpp:76] Creating layer relu4_2
I1027 20:04:54.920348  6776 net.cpp:110] Creating Layer relu4_2
I1027 20:04:54.920358  6776 net.cpp:477] relu4_2 <- conv4_2
I1027 20:04:54.920372  6776 net.cpp:419] relu4_2 -> conv4_2 (in-place)
I1027 20:04:54.920382  6776 net.cpp:155] Setting up relu4_2
I1027 20:04:54.920389  6776 net.cpp:163] Top shape: 1 512 28 28 (401408)
I1027 20:04:54.920394  6776 layer_factory.hpp:76] Creating layer conv4_3
I1027 20:04:54.920402  6776 net.cpp:110] Creating Layer conv4_3
I1027 20:04:54.920405  6776 net.cpp:477] conv4_3 <- conv4_2
I1027 20:04:54.920411  6776 net.cpp:433] conv4_3 -> conv4_3
I1027 20:04:54.923671  6776 net.cpp:155] Setting up conv4_3
I1027 20:04:54.923694  6776 net.cpp:163] Top shape: 1 512 28 28 (401408)
I1027 20:04:54.923715  6776 layer_factory.hpp:76] Creating layer relu4_3
I1027 20:04:54.923728  6776 net.cpp:110] Creating Layer relu4_3
I1027 20:04:54.923738  6776 net.cpp:477] relu4_3 <- conv4_3
I1027 20:04:54.923748  6776 net.cpp:419] relu4_3 -> conv4_3 (in-place)
I1027 20:04:54.923761  6776 net.cpp:155] Setting up relu4_3
I1027 20:04:54.923768  6776 net.cpp:163] Top shape: 1 512 28 28 (401408)
I1027 20:04:54.923773  6776 layer_factory.hpp:76] Creating layer pool4
I1027 20:04:54.923779  6776 net.cpp:110] Creating Layer pool4
I1027 20:04:54.923784  6776 net.cpp:477] pool4 <- conv4_3
I1027 20:04:54.923790  6776 net.cpp:433] pool4 -> pool4
I1027 20:04:54.923800  6776 net.cpp:155] Setting up pool4
I1027 20:04:54.923807  6776 net.cpp:163] Top shape: 1 512 14 14 (100352)
I1027 20:04:54.923811  6776 layer_factory.hpp:76] Creating layer conv5_1
I1027 20:04:54.923818  6776 net.cpp:110] Creating Layer conv5_1
I1027 20:04:54.923822  6776 net.cpp:477] conv5_1 <- pool4
I1027 20:04:54.923835  6776 net.cpp:433] conv5_1 -> conv5_1
I1027 20:04:54.927175  6776 net.cpp:155] Setting up conv5_1
I1027 20:04:54.927208  6776 net.cpp:163] Top shape: 1 512 14 14 (100352)
I1027 20:04:54.927222  6776 layer_factory.hpp:76] Creating layer relu5_1
I1027 20:04:54.927232  6776 net.cpp:110] Creating Layer relu5_1
I1027 20:04:54.927238  6776 net.cpp:477] relu5_1 <- conv5_1
I1027 20:04:54.927248  6776 net.cpp:419] relu5_1 -> conv5_1 (in-place)
I1027 20:04:54.927260  6776 net.cpp:155] Setting up relu5_1
I1027 20:04:54.927268  6776 net.cpp:163] Top shape: 1 512 14 14 (100352)
I1027 20:04:54.927273  6776 layer_factory.hpp:76] Creating layer conv5_2
I1027 20:04:54.927281  6776 net.cpp:110] Creating Layer conv5_2
I1027 20:04:54.927285  6776 net.cpp:477] conv5_2 <- conv5_1
I1027 20:04:54.927291  6776 net.cpp:433] conv5_2 -> conv5_2
I1027 20:04:54.930599  6776 net.cpp:155] Setting up conv5_2
I1027 20:04:54.930621  6776 net.cpp:163] Top shape: 1 512 14 14 (100352)
I1027 20:04:54.930642  6776 layer_factory.hpp:76] Creating layer relu5_2
I1027 20:04:54.930654  6776 net.cpp:110] Creating Layer relu5_2
I1027 20:04:54.930660  6776 net.cpp:477] relu5_2 <- conv5_2
I1027 20:04:54.930668  6776 net.cpp:419] relu5_2 -> conv5_2 (in-place)
I1027 20:04:54.930681  6776 net.cpp:155] Setting up relu5_2
I1027 20:04:54.930688  6776 net.cpp:163] Top shape: 1 512 14 14 (100352)
I1027 20:04:54.930692  6776 layer_factory.hpp:76] Creating layer conv5_3
I1027 20:04:54.930701  6776 net.cpp:110] Creating Layer conv5_3
I1027 20:04:54.930704  6776 net.cpp:477] conv5_3 <- conv5_2
I1027 20:04:54.930711  6776 net.cpp:433] conv5_3 -> conv5_3
I1027 20:04:54.934154  6776 net.cpp:155] Setting up conv5_3
I1027 20:04:54.934177  6776 net.cpp:163] Top shape: 1 512 14 14 (100352)
I1027 20:04:54.934190  6776 layer_factory.hpp:76] Creating layer relu5_3
I1027 20:04:54.934209  6776 net.cpp:110] Creating Layer relu5_3
I1027 20:04:54.934216  6776 net.cpp:477] relu5_3 <- conv5_3
I1027 20:04:54.934223  6776 net.cpp:419] relu5_3 -> conv5_3 (in-place)
I1027 20:04:54.934234  6776 net.cpp:155] Setting up relu5_3
I1027 20:04:54.934242  6776 net.cpp:163] Top shape: 1 512 14 14 (100352)
I1027 20:04:54.934247  6776 layer_factory.hpp:76] Creating layer conv5_3_relu5_3_0_split
I1027 20:04:54.934258  6776 net.cpp:110] Creating Layer conv5_3_relu5_3_0_split
I1027 20:04:54.934264  6776 net.cpp:477] conv5_3_relu5_3_0_split <- conv5_3
I1027 20:04:54.934269  6776 net.cpp:433] conv5_3_relu5_3_0_split -> conv5_3_relu5_3_0_split_0
I1027 20:04:54.934278  6776 net.cpp:433] conv5_3_relu5_3_0_split -> conv5_3_relu5_3_0_split_1
I1027 20:04:54.934285  6776 net.cpp:155] Setting up conv5_3_relu5_3_0_split
I1027 20:04:54.934293  6776 net.cpp:163] Top shape: 1 512 14 14 (100352)
I1027 20:04:54.934298  6776 net.cpp:163] Top shape: 1 512 14 14 (100352)
I1027 20:04:54.934301  6776 layer_factory.hpp:76] Creating layer rpn_conv/3x3
I1027 20:04:54.934312  6776 net.cpp:110] Creating Layer rpn_conv/3x3
I1027 20:04:54.934317  6776 net.cpp:477] rpn_conv/3x3 <- conv5_3_relu5_3_0_split_0
I1027 20:04:54.934324  6776 net.cpp:433] rpn_conv/3x3 -> rpn/output
I1027 20:04:54.937713  6776 net.cpp:155] Setting up rpn_conv/3x3
I1027 20:04:54.937738  6776 net.cpp:163] Top shape: 1 512 14 14 (100352)
I1027 20:04:54.937749  6776 layer_factory.hpp:76] Creating layer rpn_relu/3x3
I1027 20:04:54.937767  6776 net.cpp:110] Creating Layer rpn_relu/3x3
I1027 20:04:54.937779  6776 net.cpp:477] rpn_relu/3x3 <- rpn/output
I1027 20:04:54.937790  6776 net.cpp:419] rpn_relu/3x3 -> rpn/output (in-place)
I1027 20:04:54.937805  6776 net.cpp:155] Setting up rpn_relu/3x3
I1027 20:04:54.937813  6776 net.cpp:163] Top shape: 1 512 14 14 (100352)
I1027 20:04:54.937818  6776 layer_factory.hpp:76] Creating layer rpn/output_rpn_relu/3x3_0_split
I1027 20:04:54.937824  6776 net.cpp:110] Creating Layer rpn/output_rpn_relu/3x3_0_split
I1027 20:04:54.937829  6776 net.cpp:477] rpn/output_rpn_relu/3x3_0_split <- rpn/output
I1027 20:04:54.937835  6776 net.cpp:433] rpn/output_rpn_relu/3x3_0_split -> rpn/output_rpn_relu/3x3_0_split_0
I1027 20:04:54.937842  6776 net.cpp:433] rpn/output_rpn_relu/3x3_0_split -> rpn/output_rpn_relu/3x3_0_split_1
I1027 20:04:54.937850  6776 net.cpp:155] Setting up rpn/output_rpn_relu/3x3_0_split
I1027 20:04:54.937857  6776 net.cpp:163] Top shape: 1 512 14 14 (100352)
I1027 20:04:54.937872  6776 net.cpp:163] Top shape: 1 512 14 14 (100352)
I1027 20:04:54.937876  6776 layer_factory.hpp:76] Creating layer rpn_cls_score
I1027 20:04:54.937893  6776 net.cpp:110] Creating Layer rpn_cls_score
I1027 20:04:54.937898  6776 net.cpp:477] rpn_cls_score <- rpn/output_rpn_relu/3x3_0_split_0
I1027 20:04:54.937906  6776 net.cpp:433] rpn_cls_score -> rpn_cls_score
I1027 20:04:54.937971  6776 net.cpp:155] Setting up rpn_cls_score
I1027 20:04:54.937980  6776 net.cpp:163] Top shape: 1 18 14 14 (3528)
I1027 20:04:54.937988  6776 layer_factory.hpp:76] Creating layer rpn_bbox_pred
I1027 20:04:54.937994  6776 net.cpp:110] Creating Layer rpn_bbox_pred
I1027 20:04:54.937999  6776 net.cpp:477] rpn_bbox_pred <- rpn/output_rpn_relu/3x3_0_split_1
I1027 20:04:54.938005  6776 net.cpp:433] rpn_bbox_pred -> rpn_bbox_pred
I1027 20:04:54.938060  6776 net.cpp:155] Setting up rpn_bbox_pred
I1027 20:04:54.938066  6776 net.cpp:163] Top shape: 1 36 14 14 (7056)
I1027 20:04:54.938073  6776 layer_factory.hpp:76] Creating layer rpn_cls_score_reshape
I1027 20:04:54.938081  6776 net.cpp:110] Creating Layer rpn_cls_score_reshape
I1027 20:04:54.938086  6776 net.cpp:477] rpn_cls_score_reshape <- rpn_cls_score
I1027 20:04:54.938091  6776 net.cpp:433] rpn_cls_score_reshape -> rpn_cls_score_reshape
I1027 20:04:54.938102  6776 net.cpp:155] Setting up rpn_cls_score_reshape
I1027 20:04:54.938107  6776 net.cpp:163] Top shape: 1 2 126 14 (3528)
I1027 20:04:54.938112  6776 layer_factory.hpp:76] Creating layer rpn_cls_prob
I1027 20:04:54.938118  6776 net.cpp:110] Creating Layer rpn_cls_prob
I1027 20:04:54.938122  6776 net.cpp:477] rpn_cls_prob <- rpn_cls_score_reshape
I1027 20:04:54.938129  6776 net.cpp:433] rpn_cls_prob -> rpn_cls_prob
I1027 20:04:54.938156  6776 net.cpp:155] Setting up rpn_cls_prob
I1027 20:04:54.938163  6776 net.cpp:163] Top shape: 1 2 126 14 (3528)
I1027 20:04:54.938168  6776 layer_factory.hpp:76] Creating layer rpn_cls_prob_reshape
I1027 20:04:54.938174  6776 net.cpp:110] Creating Layer rpn_cls_prob_reshape
I1027 20:04:54.938177  6776 net.cpp:477] rpn_cls_prob_reshape <- rpn_cls_prob
I1027 20:04:54.938185  6776 net.cpp:433] rpn_cls_prob_reshape -> rpn_cls_prob_reshape
I1027 20:04:54.938194  6776 net.cpp:155] Setting up rpn_cls_prob_reshape
I1027 20:04:54.938199  6776 net.cpp:163] Top shape: 1 18 14 14 (3528)
I1027 20:04:54.938204  6776 layer_factory.hpp:76] Creating layer proposal
I1027 20:04:54.955591  6776 net.cpp:110] Creating Layer proposal
I1027 20:04:54.955606  6776 net.cpp:477] proposal <- rpn_cls_prob_reshape
I1027 20:04:54.955621  6776 net.cpp:477] proposal <- rpn_bbox_pred
I1027 20:04:54.955624  6776 net.cpp:477] proposal <- im_info
I1027 20:04:54.955628  6776 net.cpp:433] proposal -> rois
I1027 20:04:54.956068  6776 net.cpp:155] Setting up proposal
I1027 20:04:54.956089  6776 net.cpp:163] Top shape: 1 5 (5)
I1027 20:04:54.956092  6776 layer_factory.hpp:76] Creating layer roi_pool5
I1027 20:04:54.956102  6776 net.cpp:110] Creating Layer roi_pool5
I1027 20:04:54.956107  6776 net.cpp:477] roi_pool5 <- conv5_3_relu5_3_0_split_1
I1027 20:04:54.956112  6776 net.cpp:477] roi_pool5 <- rois
I1027 20:04:54.956118  6776 net.cpp:433] roi_pool5 -> pool5
I1027 20:04:54.956126  6776 roi_pooling_layer.cpp:30] Spatial scale: 0.0625
I1027 20:04:54.956140  6776 net.cpp:155] Setting up roi_pool5
I1027 20:04:54.956146  6776 net.cpp:163] Top shape: 1 512 7 7 (25088)
I1027 20:04:54.956149  6776 layer_factory.hpp:76] Creating layer fc6
I1027 20:04:54.956156  6776 net.cpp:110] Creating Layer fc6
I1027 20:04:54.956159  6776 net.cpp:477] fc6 <- pool5
I1027 20:04:54.956166  6776 net.cpp:433] fc6 -> fc6
I1027 20:04:55.093112  6776 net.cpp:155] Setting up fc6
I1027 20:04:55.093142  6776 net.cpp:163] Top shape: 1 4096 (4096)
I1027 20:04:55.093180  6776 layer_factory.hpp:76] Creating layer relu6
I1027 20:04:55.093191  6776 net.cpp:110] Creating Layer relu6
I1027 20:04:55.093197  6776 net.cpp:477] relu6 <- fc6
I1027 20:04:55.093204  6776 net.cpp:419] relu6 -> fc6 (in-place)
I1027 20:04:55.093219  6776 net.cpp:155] Setting up relu6
I1027 20:04:55.093225  6776 net.cpp:163] Top shape: 1 4096 (4096)
I1027 20:04:55.093227  6776 layer_factory.hpp:76] Creating layer fc7
I1027 20:04:55.093235  6776 net.cpp:110] Creating Layer fc7
I1027 20:04:55.093237  6776 net.cpp:477] fc7 <- fc6
I1027 20:04:55.093242  6776 net.cpp:433] fc7 -> fc7
I1027 20:04:55.115880  6776 net.cpp:155] Setting up fc7
I1027 20:04:55.115908  6776 net.cpp:163] Top shape: 1 4096 (4096)
I1027 20:04:55.115918  6776 layer_factory.hpp:76] Creating layer relu7
I1027 20:04:55.115938  6776 net.cpp:110] Creating Layer relu7
I1027 20:04:55.115943  6776 net.cpp:477] relu7 <- fc7
I1027 20:04:55.115949  6776 net.cpp:419] relu7 -> fc7 (in-place)
I1027 20:04:55.115960  6776 net.cpp:155] Setting up relu7
I1027 20:04:55.115965  6776 net.cpp:163] Top shape: 1 4096 (4096)
I1027 20:04:55.115969  6776 layer_factory.hpp:76] Creating layer fc7_relu7_0_split
I1027 20:04:55.115975  6776 net.cpp:110] Creating Layer fc7_relu7_0_split
I1027 20:04:55.115979  6776 net.cpp:477] fc7_relu7_0_split <- fc7
I1027 20:04:55.115986  6776 net.cpp:433] fc7_relu7_0_split -> fc7_relu7_0_split_0
I1027 20:04:55.115993  6776 net.cpp:433] fc7_relu7_0_split -> fc7_relu7_0_split_1
I1027 20:04:55.116005  6776 net.cpp:155] Setting up fc7_relu7_0_split
I1027 20:04:55.116011  6776 net.cpp:163] Top shape: 1 4096 (4096)
I1027 20:04:55.116015  6776 net.cpp:163] Top shape: 1 4096 (4096)
I1027 20:04:55.116019  6776 layer_factory.hpp:76] Creating layer cls_score
I1027 20:04:55.116025  6776 net.cpp:110] Creating Layer cls_score
I1027 20:04:55.116029  6776 net.cpp:477] cls_score <- fc7_relu7_0_split_0
I1027 20:04:55.116036  6776 net.cpp:433] cls_score -> cls_score
I1027 20:04:55.116106  6776 net.cpp:155] Setting up cls_score
I1027 20:04:55.116112  6776 net.cpp:163] Top shape: 1 8 (8)
I1027 20:04:55.116118  6776 layer_factory.hpp:76] Creating layer bbox_pred
I1027 20:04:55.116134  6776 net.cpp:110] Creating Layer bbox_pred
I1027 20:04:55.116138  6776 net.cpp:477] bbox_pred <- fc7_relu7_0_split_1
I1027 20:04:55.116145  6776 net.cpp:433] bbox_pred -> bbox_pred
I1027 20:04:55.116602  6776 net.cpp:155] Setting up bbox_pred
I1027 20:04:55.116611  6776 net.cpp:163] Top shape: 1 32 (32)
I1027 20:04:55.116618  6776 layer_factory.hpp:76] Creating layer cls_prob
I1027 20:04:55.116624  6776 net.cpp:110] Creating Layer cls_prob
I1027 20:04:55.116628  6776 net.cpp:477] cls_prob <- cls_score
I1027 20:04:55.116636  6776 net.cpp:433] cls_prob -> cls_prob
I1027 20:04:55.116657  6776 net.cpp:155] Setting up cls_prob
I1027 20:04:55.116662  6776 net.cpp:163] Top shape: 1 8 (8)
I1027 20:04:55.116667  6776 net.cpp:240] cls_prob does not need backward computation.
I1027 20:04:55.116670  6776 net.cpp:240] bbox_pred does not need backward computation.
I1027 20:04:55.116674  6776 net.cpp:240] cls_score does not need backward computation.
I1027 20:04:55.116678  6776 net.cpp:240] fc7_relu7_0_split does not need backward computation.
I1027 20:04:55.116681  6776 net.cpp:240] relu7 does not need backward computation.
…
